Model/fine_tuned_model.pth (torch, 795531 bytes, 5 tensors)

comp_attention.attention.weight f4 [1, 384]
000000 d1 74 85 bd 8b 0a 9c bd f2 eb 0d bd 10 d4 aa bd
       -0.065164216 -0.076191984 -0.034648843 -0.08341229
000010 60 cc b0 3c 84 ab 8a bc 20 82 ff bc 19 11 88 bd
       0.021581829 -0.016927488 -0.031189978 -0.06643886
000020 26 9d e2 ba dd 8c 41 3d 54 c3 99 3d c9 1c 70 bc
       -0.0017289266 0.04725348 0.07507959 -0.0146553
000030 39 92 f3 3b 82 ea 5a bd 45 8a 32 bd 51 34 29 bd
       0.0074332026 -0.0534463 -0.043588895 -0.04130966
000040 7b 17 18 3c 41 49 10 bd f4 9f 31 bb d4 51 76 bc
       0.009282942 -0.03522611 -0.0027103396 -0.015034158
000050 9c 2d 83 bd b9 54 01 be 2c bb c7 3c fd 45 e0 3c
       -0.06405184 -0.12629975 0.024381243 0.027377123
000060 d9 60 2d bd 67 0b 92 bd e4 8e d6 bb dd 0a 21 ba
       -0.04232869 -0.07131081 -0.0065477956 -0.00061432814
000070 a8 19 38 bd fa b0 6c bd 6a 5a b1 bd 6c dd 51 bd
       -0.044946343 -0.057785966 -0.08659823 -0.051236555
000080 56 22 81 3d 3c b1 24 3d 71 19 1d 3d a5 a6 72 3d
       0.06305377 0.040208086 0.03835434 0.059240956
000090 a9 69 5b 3d 8d d6 1b bd 11 43 a3 bd 69 8f 00 bc
       0.053567562 -0.03804641 -0.07971776 -0.007846692
0000a0 b0 1e 1e 3d 7d b2 06 bc 4d da a4 bd e2 7a 3d 3d
       0.038603485 -0.008221266 -0.0804945 0.04625977
0000b0 ab e1 97 3c 65 2c 70 3c d9 2e 99 ba 87 db 82 bc
       0.018540224 0.014659022 -0.0011686935 -0.01597382
0000c0 f2 1f 2c 3c 42 b3 b7 3d 34 a1 88 3d 5f 2c c5 3d
       0.010505663 0.089697376 0.06671372 0.09627604
0000d0 63 9a a1 bc 92 c3 f1 3c e2 36 5e bc a0 22 b4 bd
       -0.019726938 0.0295122 -0.01356289 -0.08795667
0000e0 39 72 e9 bb d4 f5 35 3d 3f 3a 12 3c 8f e6 4e bd
       -0.007124212 0.044423893 0.00892502 -0.050512847
0000f0 01 ae b1 bd f4 cd 0c bd c9 1e 45 3d 50 00 d2 3d
       -0.08675767 -0.0343761 0.048125062 0.10253966
000100 67 b0 86 b9 b6 ef 03 3d c1 83 02 3d 1c ed 39 3c
       -0.00025689902 0.032211028 0.03186393 0.011348035
000110 24 0b 83 bd 89 67 c4 bc 37 4c 8e bc af 4b a0 bb
       -0.06398609 -0.02397515 -0.017370326 -0.0048918347
000120 53 d3 33 bd 22 19 78 3c e8 df 92 bd 1c c6 70 3d
       -0.043902706 0.015142711 -0.07171613 0.05878268
000130 8c 2e 9c 3c 0e 9b 93 bb 7a e6 50 bc de c0 04 bd
       0.019065164 -0.004504568 -0.012750262 -0.032410495
000140 f5 a8 26 bc e4 c9 21 3d 3c cd f8 3c 89 c0 6a 3a
       -0.010172118 0.03949918 0.0303713 0.00089550816
000150 81 7f e4 3c 24 b1 50 3c 3a cd f5 3c 3e 9d 1d bc
       0.02789283 0.012737546 0.030005086 -0.009620009
000160 1a f6 48 bd 8d 33 10 3d 11 49 5d 3d 2f 34 ec 3c
       -0.049062826 0.035205413 0.05402476 0.028833477
000170 18 29 65 3d bc 2a 29 bd 98 ac 39 bd 4a 15 8a 3d
       0.055947393 -0.04130052 -0.045330614 0.06742342
000180 9c e1 c9 bb 32 88 aa bd 6f 59 05 bd 42 90 a1 bc
       -0.006160928 -0.083267584 -0.032555994 -0.019722108
000190 ed 73 a1 bc 99 c5 8e 3c 63 87 94 3c 24 10 1f bc
       -0.019708598 0.017428206 0.018130964 -0.009708438
0001a0 87 fb 0d bc 57 a5 b4 bd 4c 1a f2 bc a3 8b c5 3c
       -0.008665926 -0.088205986 -0.029553555 0.024114436
0001b0 61 dd 82 3d 82 f6 d4 3c 7d 5f ad ba 5f af 47 3d
       0.06389881 0.02599645 -0.001322731 0.04875123
0001c0 0e f3 7d bc 36 24 89 bd 64 93 54 bd 0d 45 b0 bd
       -0.015499843 -0.0669636 -0.051898375 -0.086069204
0001d0 4b 1d 04 bd a7 f1 27 bc 15 a8 3b 3d 25 6d 16 bd
       -0.0322545 -0.0102504855 0.045814592 -0.036725182
0001e0 5b 93 b3 bd d3 79 92 bc 54 c4 ca 3d 8a 1f 29 3d
       -0.0876834 -0.017880356 0.09900728 0.041289844
0001f0 38 d7 92 bd 91 ea 9d 3d 25 c2 ed bd e7 b8 19 bd
       -0.07169956 0.077107556 -0.11609296 -0.037529852
000200 d6 56 86 bd f3 f9 23 bd 71 2b 98 3c 72 94 da bc
       -0.065595314 -0.040033292 0.018575402 -0.026682112
000210 42 f6 07 bd 61 75 19 bd 4f bb 87 3d 19 56 81 3d
       -0.033193834 -0.037465457 0.06627523 0.0631525
000220 2f 1e 35 bd 5c ae 41 bb 5e 7e 6d bc 22 2d 84 bc
       -0.04421824 -0.002955339 -0.01449546 -0.016134802
000230 d7 ec 24 bb 4e 9f ad bd f6 ec f3 bc 89 9e 94 3c
       -0.0025165582 -0.084776506 -0.029776078 0.018142002
000240 43 fa 4c bd 76 d8 45 bd e2 28 b5 3d 1c b2 61 bd
       -0.050043356 -0.048302136 0.088456884 -0.0551015
000250 69 00 bf bd 34 ec 81 bc da 28 c8 3c 17 26 ec bb
       -0.0932625 -0.0158597 0.024433542 -0.007206689
000260 85 bc d6 bc ca d3 48 3d 88 46 7b bd d3 9d 2e 3c
       -0.02621294 0.049030103 -0.06134656 0.010657745
000270 4f 97 13 3e 8d 81 65 3d 15 06 23 3d 4d f5 21 3c
       0.14413188 0.056031752 0.039800722 0.009885144
000280 35 ec 97 bc e9 09 33 3d 08 1a b5 3c a5 d5 cc 3c
       -0.01854525 0.043710623 0.02210714 0.025004217
000290 3e 4b 3d 3d e9 4b c0 bc 9a 5b e4 3d 23 b8 39 3d
       0.046214335 -0.023473697 0.11150284 0.045341622
0002a0 6b 45 e1 3d c1 70 3c bd 67 cf 7c 3c c3 a2 16 b9
       0.109995686 -0.046005968 0.015430308 -0.00014365748
0002b0 e1 4d 5a 3d 07 d2 b3 bd c4 44 bd 3c 63 30 8d bc
       0.053296927 -0.08780294 0.023104079 -0.017234987
0002c0 95 f3 17 3d 99 09 9f 3d 6e bf 8b bd 32 a1 16 bd
       0.037097532 0.077655025 -0.06823622 -0.03677482
0002d0 57 80 09 3d 32 eb 57 bd 38 ee 8e bd 48 0e 84 bd
       0.03356966 -0.052714534 -0.0697903 -0.064480364
0002e0 b4 71 c7 bc 46 20 6f bb 6f 2f 92 bd ed fe 6f 3b
       -0.02434621 -0.0036487742 -0.071379535 0.0036620453
0002f0 8b 38 a8 bd 86 43 5d 3c 55 c7 e3 3c 62 75 a2 3c
       -0.0821391 0.013504868 0.02780501 0.019831363
000300 23 97 90 bd 91 a0 1f 3c e7 a5 06 3d 1b 9a 53 ba
       -0.07060077 0.009742872 0.03287306 -0.0008071975
000310 5e 80 fa bc 16 f9 7e bd 1e 28 ac bd 5b 1b ed 3c
       -0.030578788 -0.062249266 -0.08406089 0.028943708
000320 7a ef 92 3d 75 e8 33 3d f9 d1 83 bc a9 1e 7a 3d
       0.07174583 0.04392286 -0.016091334 0.061064396
000330 03 f9 3e bd 22 e3 90 3c b0 72 11 bd 69 6d 8c bd
       -0.046624195 0.01768643 -0.035509765 -0.06856806
000340 f2 61 62 bd 6b 71 e7 3c 98 5b 97 bd 07 11 65 3d
       -0.05526919 0.028252324 -0.07390517 0.05592444
000350 45 d4 c6 bc 6f c3 ad 3d 25 8e bf 3c 46 e4 1b bd
       -0.02427114 0.084845416 0.02338321 -0.038059495
000360 eb e2 f6 bb 99 34 d3 39 3c 52 c0 3b 5b e2 fa 3a
       -0.007534375 0.00040284244 0.005869178 0.0019140946
000370 6a bd ad 3c 74 e3 73 3d 91 de 8d 3d 87 ff a9 bc
       0.021208484 0.059543088 0.06927217 -0.020751728
000380 12 73 38 bd 3c 95 44 bd d0 7b 45 3c a2 89 ba bc
       -0.045031615 -0.047993883 0.012053445 -0.022770707
000390 fa 7c af 3c 63 7a 96 bd cc 8c ad 3c d0 2c 2d bd
       0.021421898 -0.07347562 0.021185301 -0.042279065
0003a0 b1 e7 3e 3d dc 3b 01 bd 4d f7 92 3b ba 26 45 3a
       0.046607677 -0.031551227 0.004485047 0.00075207243
0003b0 3f 16 e5 bc 31 fe 82 3d ae 83 53 bd 69 eb 63 3d
       -0.02796471 0.063961394 -0.05163925 0.055644426
0003c0 09 99 6b 3d 75 d6 12 bd d4 16 00 3e 1a c6 13 3c
       0.057518993 -0.035849053 0.12508708 0.009019399
0003d0 0f 22 3d bd a3 4d 43 bc d2 66 c5 3d 5a 79 79 3d
       -0.04617506 -0.0119203655 0.09638752 0.060906745
0003e0 2b 81 b4 3c 08 af d4 bc cd af 0e 3d c2 c9 cd ba
       0.022034248 -0.025962368 0.034835625 -0.0015700387
0003f0 3b fc b8 3b 08 e7 df 3d b4 2e 1e 3d 6e ba c5 3d
       0.0056453026 0.109327376 0.03861876 0.09654699

assoc_attention.attention.weight f4 [1, 384]
000000 e4 7e b6 bd 5a 48 89 bd c4 b1 85 bd ba 06 85 bd
       -0.08910921 -0.06703253 -0.06528047 -0.064954236
000010 03 f5 9f bd 97 e5 db 3d 8b 9f 1a bd 97 c5 bd bd
       -0.07810404 0.1073715 -0.03774981 -0.09266203
000020 1d 5a 18 be b8 61 94 bd af da 02 3e 87 ff 64 3d
       -0.14878125 -0.07245201 0.12778734 0.055907752
000030 e0 7c bc 3c a2 26 a9 bd ff 84 13 3e 7e cc 56 3d
       0.023008764 -0.08259322 0.14406203 0.052441113
000040 e5 1c 88 bd f2 37 87 bd b2 4c 20 bd d0 c4 0b be
       -0.06646136 -0.066024676 -0.039135642 -0.13649297
000050 88 a0 db bd 84 76 43 be f7 b1 41 be cb 7c f6 3d
       -0.10723978 -0.19088179 -0.18915544 0.12035521
000060 41 b8 10 bd d5 47 15 be e1 6f 0f 3d 0f e0 1e be
       -0.03533197 -0.14578183 0.035018805 -0.15515159
000070 ae 37 41 3e 0d b1 c3 bd 59 fe c3 bd 49 7f 2c 3e
       0.18868896 -0.09555254 -0.09569997 0.1684543
000080 f1 24 94 3d 42 a3 13 3d ff b0 ee 3d d2 49 29 3e
       0.072336085 0.036044367 0.11654853 0.16532066
000090 07 6a 07 3e cd a7 8f 3d 1a c0 e7 bd 62 3f 3b be
       0.1322404 0.07014427 -0.11315937 -0.18285897
0000a0 1a 1a 72 bd 50 3e a2 3d 02 54 25 be 56 ac 49 bc
       -0.059106924 0.079220414 -0.16145328 -0.0123091545
0000b0 77 7f 49 bd 00 f5 1b 3d a3 0e 9f 3d 53 27 3f 3e
       -0.049193826 0.038075447 0.077664636 0.18667345
0000c0 21 9a 19 3e 2b 1c 06 3e 50 21 db 3d 14 c0 0f 3e
       0.15000202 0.13096683 0.10699713 0.14038116
0000d0 ae 73 38 3c c2 52 2b 3e 8e b2 25 be 3b 2b 35 be
       0.011258049 0.16730788 -0.16181394 -0.17692272
0000e0 05 cb b7 3d 12 4c 18 3e 43 b9 d8 bb d3 7e eb bc
       0.0897427 0.14872769 -0.006613882 -0.028746998
0000f0 11 74 a5 bd 0d f6 e7 bd ae e5 31 3e d1 c4 6b 3d
       -0.080787785 -0.11326227 0.17372772 0.057560746
000100 19 16 09 be de 1f b7 bd 23 ac da 3d 1f bc 0b 3e
       -0.13387336 -0.08941625 0.10677364 0.13645981
000110 47 f6 1e be 55 38 ef 3d e5 43 82 3d 13 67 e4 bd
       -0.15523635 0.11680666 0.06360606 -0.11152472
000120 dc 0e 74 bd 43 2e 55 3d b8 8c 20 be ee f5 b1 3d
       -0.059584484 0.05204607 -0.1567868 0.086894855
000130 db eb d1 3d d0 9e ee bd 51 ff 30 3e 8b 99 83 3d
       0.10250064 -0.11651385 0.17284895 0.0642577
000140 3b dd 14 bd 1f 12 be 3d 13 e1 05 be 8e c3 d7 bd
       -0.036343794 0.092808 -0.1307414 -0.10535346
000150 8a a0 17 3e a4 ca 2e be 05 9c c6 3a 0a b7 dc bd
       0.14807335 -0.17069489 0.0015152699 -0.107770994
000160 7f 27 1d 3e 33 3e a8 3d af bc c2 bc 3a 4f dd 3d
       0.15347098 0.082149886 -0.023771612 0.10806127
000170 ed 5a 03 3e 12 62 e6 bd e5 9f f6 3d 9a f5 d9 3d
       0.12827654 -0.11249174 0.12042216 0.10642548
000180 ac 10 02 3e a5 8d a5 bc d1 1e bc bd af de a5 3c
       0.12701672 -0.020209143 -0.09185565 0.020247785
000190 37 09 28 bd df 54 79 3e 21 89 f1 3d bc ea 78 bd
       -0.041024413 0.24348782 0.117937334 -0.060770735
0001a0 cf 2b f3 bd e1 a4 1f be 34 5e 15 be 5e ff 3b bd
       -0.1187359 -0.1559024 -0.14586717 -0.045897834
0001b0 70 3e 2e 3e 16 d9 d7 3d 31 4b 66 3c 63 1e 9d 3d
       0.17016006 0.10539453 0.014056013 0.076718114
0001c0 f8 ce 0a be b2 3b da bd 25 e9 29 be 65 34 f5 bd
       -0.13555515 -0.10655917 -0.16592844 -0.11972884
0001d0 41 ac 99 3c 60 85 05 be 3c 5d de bc 91 4a ac bd
       0.018758895 -0.1303916 -0.027144067 -0.0841266
0001e0 07 b7 c4 bc c0 03 ea 3c f9 95 d0 3d 7a d5 12 be
       -0.024013055 0.028566241 0.10184855 -0.14339247
0001f0 cb 9e 92 3d f4 27 a4 3d 4b 4c 17 be a3 a5 75 bc
       0.071591936 0.08015433 -0.14775197 -0.014993104
000200 95 71 2d be 45 7e 9b bd 1d b6 f5 bd 16 0e cb 3c
       -0.1693786 -0.075924434 -0.11997626 0.02478699
000210 cc b0 a5 bc 20 d8 eb 3b 4d 14 74 3e bd 92 1f 3e
       -0.020225905 0.007197395 0.23835869 0.1558332
000220 e9 1c 2f be 07 aa b6 3d 65 8b c0 bd ed 53 fb bd
       -0.17100872 0.08919149 -0.094015874 -0.12271867
000230 cc 4b 92 3d 6c 11 04 be 64 bc ef 3d 44 b8 cd bd
       0.07143363 -0.12897271 0.117058545 -0.100449115
000240 a1 fe 31 bd d2 85 70 bc da 97 10 3e fd ed c8 bd
       -0.043455724 -0.014680343 0.14120427 -0.09811018
000250 5e 2e 26 be b5 8e 26 3e 8a 4b 74 3d ae 9b bf ba
       -0.16228625 0.16265376 0.059642352 -0.001461854
000260 f7 dc c4 bd 6d 7b a7 3d a6 82 08 be fd dc 3f be
       -0.09612458 0.081778385 -0.13331088 -0.18736644
000270 9e 28 11 3e 86 01 53 3d dc 76 88 3c f0 6f 02 3e
       0.1417565 0.051515125 0.016658239 0.12738013
000280 e1 23 46 bd a1 dc 26 3e 62 a6 17 be ea 8b 15 3e
       -0.04837406 0.16295101 -0.14809564 0.14604154
000290 7b 06 cf 3d 5b 84 ad bd fb b3 21 3e 5a ed 23 3e
       0.10108658 -0.084725104 0.15791313 0.16008511
0002a0 1f 00 ba 3d 93 e3 bb bd 3c 16 f5 3d 5b 0b a2 bd
       0.09082054 -0.09174266 0.119671315 -0.07912322
0002b0 79 fd ff 3d 75 4c 0d be 37 05 f7 bd 02 e7 86 3d
       0.12499518 -0.13798697 -0.120615415 0.0658703
0002c0 85 34 86 bd d4 e7 9d 3d a5 b1 21 be 36 73 99 3d
       -0.06552986 0.07710233 -0.15790422 0.07492678
0002d0 b8 4d dd 3d e3 97 18 be 81 c6 09 bd cb 67 9b bd
       0.10805839 -0.1490169 -0.033636574 -0.07588156
0002e0 93 7a e9 bd ff 93 fd bd cc d7 14 bd bb 81 ba 3d
       -0.11400332 -0.12381744 -0.036338612 0.091067754
0002f0 99 77 35 bd 43 90 f0 3d ff c2 b7 3d 6d 89 bb bd
       -0.04430351 0.11746266 0.089727394 -0.09157071
000300 00 ff 25 be ca 66 7c 3d 60 20 36 3e 2e b0 20 be
       -0.16210556 0.061621465 0.17785788 -0.15692207
000310 31 4c 81 bc 5c d4 c2 3a 62 a3 46 bc cd 99 06 bd
       -0.015783401 0.0014864313 -0.012123914 -0.03286152
000320 8b 21 17 3e 59 cb 04 3e 73 ff 28 3e 9b 06 0e ba
       0.1475889 0.12968196 0.16503696 -0.00054178544
000330 d7 d2 70 3d d1 f1 9f 3d eb 5f 06 bd f1 37 8f bd
       0.058794823 0.07809795 -0.03280632 -0.06993092
000340 2e 3b 5b bc 4a fd 2a 3e aa 0d 93 bd 03 b1 07 3e
       -0.013380809 0.16698185 -0.071803406 0.13251118
000350 38 ca 63 bd af 86 6b ba 57 e3 31 be 6e e2 63 bd
       -0.055612773 -0.0008984608 -0.1737188 -0.055635862
000360 7e fb 4d bd e5 46 1d 3e bb 59 25 3e 4f 65 03 be
       -0.05028867 0.15359075 0.1614751 -0.12831615
000370 8d 6d 14 3d da 38 d2 3d f4 3d 80 3d 48 4e f1 3c
       0.03623729 0.1026475 0.062618166 0.029456273
000380 e9 34 8d bd ef 3b 29 be 85 33 c5 3d 47 b9 36 be
       -0.068948574 -0.16526769 0.09628967 -0.17844115
000390 ec b7 0c 3e af 16 f3 bd 86 5c b7 3c 1e a3 12 be
       0.13742036 -0.11869561 0.022382986 -0.14320037
0003a0 76 c0 c7 3d 9f aa d0 3d e9 b4 18 3e 8b 31 40 3c
       0.09753506 0.101887934 0.14912762 0.011730562
0003b0 e9 8d 0f 3e 2a 61 68 3d da 3e 0e be ff 8f 32 3e
       0.14018978 0.056733288 -0.13891163 0.17437743
0003c0 c7 b9 64 3d 60 91 97 3d c5 ce 23 3e 54 d4 1c be
       0.055841234 0.07400775 0.15996845 -0.15315372
0003d0 21 7b 35 be a1 11 10 3e d9 be 22 3e 6e 44 95 3d
       -0.17722751 0.14069225 0.15893115 0.072884426
0003e0 b1 fe 12 be f4 ed d0 bd b3 bf 08 3e f4 da 2d be
       -0.1435497 -0.10201636 0.13354377 -0.16978055
0003f0 53 a7 36 3e 7f e7 f7 3d ae f5 02 3e f4 d7 9b 3d
       0.17837267 0.12104701 0.12789032 0.07609549

fc1.weight f4 [256, 768]
000000 a7 0b 2c bd 89 de 60 bb d9 ed 5a bd 9d af 6f 3c
       -0.0420033 -0.0034312329 -0.053449485 0.014629272
000010 c4 0e b1 bc da 3a 1a bb 52 f8 93 3c 22 c6 9a bb
       -0.021613486 -0.0023533613 0.018062744 -0.0047233263
000020 27 23 e1 bb ff 83 db bc 05 a0 2f 3d 2a f4 11 bc
       -0.0068706456 -0.02679634 0.042877216 -0.008908311
000030 bd d1 89 bc ba db 07 bc 3d 7b 47 bd d2 b2 08 bd
       -0.016823644 -0.008292133 -0.048701514 -0.03337366
000040 f8 24 73 3d c0 97 3d bd c7 39 04 bc 38 ca 5a 3d
       0.059361428 -0.0462873 -0.008070416 0.053415507
000050 e5 fb b0 3c 73 ea b3 bc 58 9a 24 bd 81 5f 66 bb
       0.021604488 -0.02196238 -0.040186256 -0.003515214
000060 c9 f5 66 bd 3c 11 1f 3b 37 9f 06 3d 35 14 08 3d
       -0.056386743 0.0024271747 0.032866683 0.033222396
000070 5a 26 51 bd 77 18 6c bd 19 7e 7d 3c 59 ef 3b 3d
       -0.051061966 -0.05764052 0.015471959 0.045882557
000080 2c 50 c4 bc d6 f0 a4 bb 4e 9e 2d 3d c9 f9 66 bd
       -0.02396401 -0.0050335927 0.0423873 -0.056390557
000090 01 c8 5f 3c c4 df 38 bd 68 44 cc 3c ab 18 c1 3c
       0.0136585245 -0.045135275 0.024934962 0.023571333
0000a0 2a 84 c8 bb da cc 60 bd 82 b5 22 3d 85 b9 39 3d
       -0.006119271 -0.05488286 0.03972388 0.04534294
0000b0 b6 cd cb 3a 4b 7d 32 3d a1 f9 a5 bb 40 4a fa bc
       0.0015548978 0.04357652 -0.0050651585 -0.030552983
0000c0 2f ac aa 3c ad 77 b6 bc 9f 69 8a bd e9 98 02 bd
       0.020834057 -0.022273863 -0.06758427 -0.031884108
0000d0 45 5c 85 3b 24 76 ee 3c 83 4b 0c 3d 49 bf fa bc
       0.0040698373 0.029109068 0.0342517 -0.03060879
0000e0 fd 20 ea 3c af f3 29 3c a2 58 ee bb 90 d7 7d 3c
       0.028580183 0.01037304 -0.0072737494 0.015493289
0000f0 9e 54 ff bb 70 ad 34 bd 20 1c 44 bd 0d e5 56 3d
       -0.0077920696 -0.044110715 -0.047878385 0.052464534
000100 ac c6 d3 3c 78 8a ef bb d5 26 10 3b a3 9e 68 3b
       0.02585157 -0.007310208 0.0021995802 0.0035494945
000110 14 1a 0d bd ef a8 46 3b 4f 17 86 bc d1 18 d8 3b
       -0.0344487 0.0030313095 -0.016368536 0.006594755
000120 ab f6 68 3c 84 7b 66 3a 59 58 a5 ba 28 80 48 bd
       0.0142189665 0.0008792209 -0.0012614831 -0.048950344
000130 52 db 84 bb 13 d8 94 3c 59 b4 da 3b bb af 10 3c
       -0.0040544653 0.018169438 0.006674331 0.00883096
000140 68 ae 48 bd 85 52 64 bb 65 82 59 bc 05 84 34 3d
       -0.04899445 -0.0034839225 -0.013275717 0.044071216
000150 c3 d7 9f bb da 0f a2 3c de 97 3c bd 26 a2 43 3c
       -0.0048780157 0.01978295 -0.04604327 0.011940515
000160 31 9c 55 bc fe b3 39 bc 5e 9b 3d bd 0c 57 a4 3c
       -0.013037727 -0.011334417 -0.046290748 0.020061038
000170 22 05 b0 3c f1 f2 c3 bb 33 f8 68 bc eb 5c 83 3c
       0.021486823 -0.0059798886 -0.014219332 0.016035518
000180 78 f1 06 bd f7 3a 46 bd e4 fd 15 3d 6e 94 a7 3b
       -0.032945126 -0.048396077 0.036619082 0.0051141297
000190 16 dc ea 3c 68 2a 2a bd 57 5e 40 bc 29 1b 71 bc
       0.028669398 -0.041544348 -0.011741242 -0.014715948
0001a0 48 e8 4d bd 73 eb db 3b 27 49 0e 3c 47 2c 75 3c
       -0.05027035 0.0067114173 0.008684433 0.01496417
0001b0 52 63 a6 3b 29 13 2c bd d8 cb 66 bc ec 49 2a bd
       0.005077758 -0.04201046 -0.014086686 -0.041574404
0001c0 8a de e2 bc e1 53 83 bc 81 fb cd 3b f6 60 54 3c
       -0.027694006 -0.016031208 0.006286085 0.01296257
0001d0 11 98 81 bd 3c 9c 7e ba 5e c0 3f 3d f3 e0 25 bd
       -0.063278325 -0.0009712612 0.046814315 -0.04049773
0001e0 ea 1b d4 3b ca 29 18 3d f3 e8 40 bc 70 7d 04 bd
       0.006473054 0.03714923 -0.011774289 -0.03234619
0001f0 3d 62 a9 bc 8e 70 ae ba a6 11 36 3d 17 18 59 bb
       -0.020676726 -0.001330869 0.044450425 -0.003312593
000200 54 ba bf bc 84 2c 66 3c 59 2f 9b 3c 8b 6f 07 3d
       -0.023404278 0.014048699 0.018943476 0.03306536
000210 dd ea 4a bd ea 1b cf 3c 4f 2c b5 3b f0 3e d8 3c
       -0.04954039 0.025281865 0.0055289636 0.026397198
000220 e0 2d a1 bc e4 59 33 bb 7e 64 3b bc cf f0 b0 3c
       -0.019675195 -0.0027366811 -0.011437533 0.021599201
000230 30 99 6d bd b0 29 bb 3c cb ce 54 3d f5 5c 3f bd
       -0.05800742 0.022847027 0.051955026 -0.04671951
000240 fc 31 8d 3c 00 b5 02 3d 8e 00 29 bc 5a ce 25 3b
       0.017235748 0.031910896 -0.010315074 0.0025299997
000250 71 4f 8e 3c af 9a 5a 3b 18 44 c1 bc 54 01 0c bd
       0.017371865 0.0033356359 -0.02359204 -0.034180954
000260 19 83 ce 3b a8 c4 c0 bc a9 15 06 bd 86 e3 14 3d
       0.006302249 -0.023531273 -0.0327355 0.036349796
000270 84 5b 6a bd f0 27 c0 3b ea e4 a9 bb 17 b5 15 3d
       -0.057216182 0.005864136 -0.0051847594 0.036549654
000280 d3 54 3c 3d 5f ad c4 bc e0 51 36 bb ea 0a b1 3c
       0.045979332 -0.024008451 -0.0027819797 0.02161165
000290 35 46 41 bc b2 8b 37 bd 63 c2 ee bc 73 75 42 3d
       -0.011796524 -0.04481096 -0.029145425 0.04747529
0002a0 0b 31 32 3d c0 56 9f 3c d8 7e 93 bc ad 1f 63 3c
       0.043503802 0.019450545 -0.01800482 0.013862533
0002b0 b3 c0 37 3d f5 36 e3 3c 11 f3 74 3d 48 ae 94 bc
       0.044861507 0.027736166 0.05980212 -0.01814951
0002c0 6b 04 43 bb aa 87 5e 3c 24 aa c0 3b 48 e8 c1 3c
       -0.0029757272 0.0135821495 0.0058796573 0.02367033
0002d0 73 c3 54 3c 65 59 86 bb 84 8b 07 bc 41 ba 3b 3c
       0.012986052 -0.004100012 -0.008273009 0.011457981
0002e0 37 c1 e0 bc a6 10 3c bc 49 b3 4d 3c 87 2b 7c bb
       -0.027435882 -0.011478579 0.012554952 -0.0038478093
0002f0 6f d4 43 3c bb f5 1b bc 3f 9d 0a 3c 07 2f bf 3a
       0.011952504 -0.009519036 0.008460342 0.0014586159
000300 da 73 f4 3b cc 1d 75 3c 40 56 d0 3c a6 fa 58 bd
       0.0074600996 0.014960717 0.025431752 -0.052973412
000310 dd 31 ea bc 46 f1 7e 3b 47 a4 31 bd af 8c 3b bd
       -0.02858823 0.0038901134 -0.043369558 -0.045788463
000320 2c d1 dc 3c fe 70 09 3d c6 e9 55 3d 79 ac 2f bd
       0.02695521 0.033555023 0.052224897 -0.042889092
000330 a0 0b a7 3c de 70 2b 3c 71 38 60 bb f3 16 35 3d
       0.020391285 0.010463921 -0.003421333 0.04421134
000340 22 7b 37 bd 29 cf ca 3c fc af 89 bc 54 d3 5b bc
       -0.044795163 0.024756985 -0.016807549 -0.013417084
000350 a6 e4 bd 3c d1 94 c1 bc a5 f6 22 bd 97 de ac 3c
       0.023180317 -0.023630532 -0.039786 0.021102233
000360 ce e2 ee 3c b3 f2 85 3b 50 a3 4a bd 92 ac 10 3d
       0.029160883 0.00408777 -0.049472153 0.035320826
000370 81 36 5c 3b e6 d8 1e 3d 58 0c 13 bc ce a5 a8 3c
       0.0033601823 0.03878107 -0.008975111 0.020586874
000380 0d 8b a2 bc 1d 77 0d 3b f3 2d 6c bd 8f 02 7d bc
       -0.019841695 0.002158589 -0.057661008 -0.015442505
000390 bd 7e ab bb d5 63 69 3c 65 ec 16 b9 4e ae 13 bc
       -0.0052336142 0.014244993 -0.00014393179 -0.009013725
0003a0 05 74 d8 3b d4 a7 ba 3c ba 07 91 ba ab e3 86 bc
       0.0066056275 0.022785105 -0.0011064925 -0.016465982
0003b0 b6 df 42 3c fa 3a d5 bc 2a e4 33 3c 96 2a 57 3d
       0.011894157 -0.026029099 0.0109796915 0.052530847
0003c0 49 07 0b bd 15 15 0a 3c e8 7a c8 bb 33 8a 8f 3c
       -0.033942495 0.008427878 -0.006118167 0.017521953
0003d0 bf d3 d3 bb bd 23 05 3c 7e 58 ad bd 5a ff aa 3b
       -0.006464451 0.008126196 -0.08464144 0.0052184286
0003e0 55 c7 fa bc a0 e8 1e 3c 3a 24 39 3d 0e fa 74 3d
       -0.030612627 0.009699017 0.045200564 0.059808783
0003f0 81 8f 3d 3c d7 2d 2f bc 74 d6 f7 bc 10 8c 86 bd
       0.0115698585 -0.010692081 -0.030253626 -0.065696836

fc1.bias f4 [256]
000000 6a 9d 3e 3d 97 8b 0d bd 2d 76 37 3d f1 b2 e2 bc
       0.04653684 -0.03455695 0.044790436 -0.027673217
000010 1f 21 28 bb 56 63 9e 3c ba 18 e7 3a 18 3f 0c 3d
       -0.0025654507 0.019334476 0.001763127 0.03423986
000020 80 ca 06 bd ac b2 1d 3d 5a ca df bc 03 38 ac bc
       -0.032907963 0.038500473 -0.027318168 -0.021022802
000030 5d 89 d1 3b 51 66 d1 bc 8a 15 0a 3d ef 36 02 bb
       0.006394549 -0.025561484 0.033711948 -0.0019869169
000040 34 85 2d 3d 21 a4 03 3d db b8 88 39 1f 5d c6 3b
       0.04236336 0.032138947 0.0002607767 0.0060535814
000050 be 6d 2e 3c 45 be aa bc 94 f3 e6 3c de 82 31 3d
       0.010646282 -0.02084268 0.028192319 0.043337695
000060 1f 22 12 3d da 44 4d 3d b2 bd 13 3d fa 94 50 3d
       0.03567707 0.05011449 0.03606958 0.050923325
000070 b7 af 8e bc 3b 2e 9a bc 23 25 e4 bc 71 35 d8 3c
       -0.017417772 -0.018820873 -0.02784974 0.02639267
000080 b0 c4 46 3c 7d 94 0a 3d ba 06 1b 3d 4c 8b 50 3d
       0.012131855 0.033833016 0.03784821 0.050914094
000090 4d f9 27 3c cb a7 4c bc cb 5d 1e 3d 4e 30 37 3c
       0.010252309 -0.012491177 0.038663667 0.01118095
0000a0 85 e6 2e 3d 2a 06 a7 3c 32 49 2b bc 72 e4 01 bd
       0.04270031 0.020388681 -0.010454463 -0.031712003
0000b0 aa e9 a2 3b f1 ad ef bc 18 3a 6c 3c 21 81 f1 3b
       0.0049717026 -0.029257746 0.0144181475 0.0073701297
0000c0 6d 56 1c 3d 00 2c 43 3d c3 4d c4 3c 8f 28 40 3d
       0.03816836 0.047649384 0.02396286 0.04691368
0000d0 6a c7 91 3c 9a c6 ae bc 1a 88 1b 3d ef 70 0b 3d
       0.017795283 -0.021334935 0.037971593 0.03404325
0000e0 f5 9c bb bc ba 42 06 bd fd 64 46 3d 4c 7c 1a 3c
       -0.022901991 -0.03277848 0.048436154 0.009429049
0000f0 9b bd 18 3c 4a 03 1d 3d a4 af 03 3d d4 0f f5 ba
       0.009322549 0.038333215 0.032149926 -0.0018696734
000100 b8 44 e6 bc d4 06 c1 bc 3f f6 b9 bc 3c 0d 22 3d
       -0.02810894 -0.023562826 -0.022700427 0.039563403
000110 3f cc 97 bc ac c2 b3 3c fe 28 32 3c 48 fd 07 3c
       -0.01853001 0.021943413 0.010874031 0.008300133
000120 51 d8 00 bd 40 e6 2c 3d 1d 62 11 3d d2 6a 6b bb
       -0.031456295 0.04221177 0.03549396 -0.0035921824
000130 f6 22 bd 3c 00 d3 f7 3c 8f a0 55 bb e2 b5 fd 3c
       0.02308796 0.03025198 -0.003259692 0.030970518
000140 7d 68 97 bc 3d df b7 3c 2a 00 05 3d be ac b6 3c
       -0.018482441 0.022445315 0.03247086 0.022299167
000150 26 4e 19 3d 5a c4 7c bb 62 21 a1 bb 52 95 94 bc
       0.037428044 -0.0038569183 -0.0049173096 -0.018137608
000160 35 1c 02 3d 91 21 91 3b 11 05 aa 3c 79 d7 1e bc
       0.03176518 0.0044290503 0.020754369 -0.009694927
000170 14 d1 09 3d b4 91 a8 bc af 1a 9a bc 5f c9 35 3c
       0.033646658 -0.02057729 -0.018811552 0.011095374
000180 ec 1d 14 3c 4a b1 9d 3c 65 c7 e4 3c b2 1b 06 3d
       0.009040337 0.019249577 0.02792711 0.032741256
000190 5e 65 0f bd 4c 7c 6f b9 a8 dd 41 3d 48 9e d8 3c
       -0.03500878 -0.0002283912 0.04733053 0.026442662
0001a0 5e d1 9d bc c6 ef 6a bc 3c 7c 12 bd 70 4d f7 bc
       -0.019264873 -0.014339393 -0.03576301 -0.030188292
0001b0 0e f3 f5 bc 7b c8 0e 3d 4b 89 98 3c d8 91 52 3d
       -0.030023124 0.03485916 0.018620154 0.05140862
0001c0 88 fa 10 3b 48 ee f4 bc f8 ea 61 bc 9d e1 b4 bc
       0.0022121985 -0.029898778 -0.013788931 -0.022080237
0001d0 6e cd c6 bc f1 08 0a 3c 50 85 a4 bc 99 21 a2 3c
       -0.024267878 0.008424983 -0.0200831 0.019791411
0001e0 3d 86 44 3c c3 32 5d 3d 19 d6 14 bc f2 e1 0f bd
       0.0119948955 0.05400349 -0.009084248 -0.035127588
0001f0 07 74 f2 bb c2 81 9e bb c3 38 8f bc 95 c2 b4 3c
       -0.0073990854 -0.0048372457 -0.01748312 0.02206544
000200 d4 17 f3 bc 24 c6 ad 3c 3a 60 be bc b4 97 57 bc
       -0.029674448 0.021212645 -0.023239244 -0.013158727
000210 50 8c c0 bc 05 f7 be bc ad c9 83 3c 24 97 91 b9
       -0.023504406 -0.023311147 0.016087377 -0.00027769164
000220 46 59 2d 3c b9 19 d8 bc 6c da d8 bc 9e 49 03 3d
       0.0105803665 -0.026379453 -0.02647134 0.03205263
000230 46 41 1b 3d 04 54 a2 3c a5 96 00 3d d5 2d 7a bb
       0.037904046 0.019815452 0.031393666 -0.003817429
000240 9a 9a c0 bc 71 b9 97 bc c3 9d 81 bc 9f c0 e3 3a
       -0.02351122 -0.018521043 -0.015822297 0.0017376131
000250 6c 8a c7 bc b8 66 38 3b b7 27 a3 3c 12 ee 03 3d
       -0.024357997 0.0028137397 0.019916398 0.032209463
000260 3c cb 78 bb 57 b4 07 3c 51 ef 89 bc 4f dd fe bc
       -0.0037962934 0.008282742 -0.016837748 -0.031111388
000270 6c 4b c8 3c 49 67 33 3d ca 8b 51 bc 60 1e d7 bc
       0.024450026 0.043799672 -0.012789676 -0.026259601
000280 12 1e db bc b6 6b 5d 3c d7 21 f9 3c 29 8c 06 3d
       -0.026747737 0.01351445 0.030411644 0.03284851
000290 38 63 e7 3c 2f ba 27 3d b8 6c 28 3d 3b ac da 3c
       0.028245553 0.040949043 0.041119307 0.026693454
0002a0 f0 38 97 bc 9b 04 25 3d 3a 20 e0 3c 23 70 e4 3c
       -0.018459767 0.040287595 0.027359117 0.027885502
0002b0 fb 0b 84 bb ee 02 fd 3c 70 9c ab 3c 66 66 84 bb
       -0.0040297485 0.030885186 0.020948619 -0.004040527
0002c0 ee 6a 0a 3d 5e 3e 43 3c 19 62 01 bd 9c 30 88 3c
       0.033793382 0.011916725 -0.031587694 0.016624741
0002d0 20 4d ac bb 2e 9c 80 bc db ae cc bb f5 a9 3b bc
       -0.0052582175 -0.015699472 -0.0062464303 -0.011454095
0002e0 52 bd 58 3c 61 e0 3f 3d 8a 3b f9 bc f3 02 10 bd
       0.013228731 0.046844844 -0.030423898 -0.035159063
0002f0 f9 90 1a 3d 8e 21 64 bc b9 46 c2 3c 84 15 7e 3c
       0.037735913 -0.013924016 0.023715364 0.015508059
000300 2a 91 94 3c 78 8d b4 3c 9a 04 da 3c df 1e d7 bb
       0.018135626 0.022040114 0.026613522 -0.0065649594
000310 70 79 5a 3a 5d 5d 21 3c c6 72 9b bc 92 24 dc bc
       0.00083341356 0.00984892 -0.018975627 -0.026872907
000320 9d 85 08 3d b8 e5 eb 3c c9 10 b1 3a 35 2a 87 bc
       0.03333055 0.028796062 0.0013509031 -0.016499618
000330 0c 3e ce 3b ab 24 f0 bc c3 36 a1 3c 21 bc 92 3c
       0.0062940177 -0.02931436 0.019679433 0.017911972
000340 eb aa a6 bc 72 ec 30 3d d0 41 11 3d fb 59 41 3c
       -0.020345172 0.04319424 0.035463154 0.011801238
000350 70 63 c0 3c 94 62 84 bc d1 e3 9f 3c 5b 80 24 3d
       0.023484915 -0.016160287 0.019517811 0.04016147
000360 8d 78 11 bc 23 92 f8 3c 58 3f a9 3c 41 64 d0 3c
       -0.008878839 0.03034312 0.020660087 0.02543843
000370 b0 c5 d9 bc e9 f7 f4 bc 6c 01 17 3d 05 66 43 3d
       -0.026583523 -0.029903369 0.03686659 0.047704715
000380 6d d7 c8 bc 7e bd d4 3c 10 7e 01 3d d2 10 e0 3b
       -0.024516786 0.025969263 0.031614363 0.0068379426
000390 cc 21 91 39 65 c0 f6 3c 82 68 0c 3d bd e2 04 3d
       0.00027681736 0.030121038 0.034279354 0.032442797
0003a0 a3 cf f9 bc fe 8a ff 3a 56 f2 a4 3c aa 81 36 3d
       -0.030494517 0.0019496379 0.020135086 0.04455725
0003b0 c7 3a 3f 3c 94 ba 08 bc ec ee c0 3c 96 7b 09 bd
       0.011671728 -0.008345265 0.023551427 -0.033565126
0003c0 68 1c 1c bb 0d 37 24 3d f8 22 ff bc 12 ec 19 bc
       -0.0023820642 0.040091563 -0.031144604 -0.009394662
0003d0 7d d7 78 bc 79 f3 e1 bc 9b bd 93 3b 40 bb c6 bb
       -0.015188095 -0.027581917 0.0045086867 -0.0060648024
0003e0 d4 15 06 3d 89 8c 0c 3d bf 1c c9 bc 5a 76 a4 bc
       0.03273566 0.034313712 -0.02454984 -0.020075966
0003f0 c6 09 43 3c e8 58 ea bb a5 b7 81 3a c8 20 01 bd
       0.011904186 -0.0071517117 0.0009896649 -0.031525403

fc2.weight f4 [1, 256]
000000 8f 6d f1 3d 35 27 e8 bc dd 21 0e 3e d4 a4 d4 bb
       0.11788475 -0.028339008 0.13880105 -0.0064893756
000010 d8 06 d5 3c 6e 21 34 be 74 40 02 be ca cf fa 3d
       0.02600424 -0.17590877 -0.127199 0.12246664
000020 be 1d a7 bc 94 df da bd 90 4e cd bd 6f e4 42 bc
       -0.020399924 -0.106871754 -0.1002475 -0.011895283
000030 34 7b 18 3c d4 b2 2b 3d 91 6e 1a 3e da af 04 be
       0.009306718 0.04191859 0.1508124 -0.12957707
000040 d2 54 a9 bd f8 98 70 3d 22 44 00 be be 53 00 be
       -0.08268131 0.058739632 -0.1252599 -0.12531945
000050 e2 6a 60 3b 24 4c d2 3b 06 17 de bd 4f bc 29 3e
       0.0034243395 0.006417768 -0.10844235 0.1657574
000060 d0 d4 e7 bd e0 f5 ea 3d a8 ee dd bd 22 52 03 3e
       -0.11319888 0.11472678 -0.10836536 0.128243
000070 fb 2c c8 bc 71 48 28 be 1e 4a a7 3c 2d 9b 56 3d
       -0.02443551 -0.16433884 0.020421084 0.05239408
000080 43 40 57 3d 8a 22 bf bd 6b 96 b5 bd 2d fa d5 3d
       0.05255152 -0.0933276 -0.088665806 0.10448108
000090 f4 8e b8 bd 06 3d e2 bd bb f3 cc bd b0 c0 38 be
       -0.09011641 -0.110467955 -0.100074254 -0.18042254
0000a0 d3 9f 10 be 16 76 d2 bd 27 fb c0 bb fd 6f 4d bd
       -0.14123468 -0.10276429 -0.0058893147 -0.05015563
0000b0 0a ce 16 be c7 72 97 3b e1 6b e9 bd c5 19 0b 3e
       -0.14727035 0.004621837 -0.113975294 0.13584049
0000c0 67 0f e1 bd e5 50 09 3e 6d 6a 16 be 67 c3 28 3e
       -0.10989266 0.13409765 -0.14689036 0.1648079
0000d0 20 be ea bd 4a b7 ab 3b 86 cb 0a be b3 88 01 be
       -0.11462045 0.0052403556 -0.135542 -0.12649803
0000e0 e8 2e cf bc 65 c5 dd 3c 63 fb 0e 3e 69 d2 d8 3b
       -0.025290921 0.027071664 0.13963084 0.0066168797
0000f0 9a 2f 0b be 63 a3 0d be cf cd 20 3e 83 4d 13 be
       -0.13592377 -0.13831858 0.1570351 -0.14385037
000100 46 88 63 3c a9 b1 5f 3d 8c 78 0c bc 40 50 22 3e
       0.013887471 0.05461279 -0.0085736625 0.15850925
000110 88 43 06 be 95 4c f1 bd 6e 4a f8 bd dc 03 ec 3d
       -0.13111699 -0.11782185 -0.12123571 0.115241736
000120 68 0b 8b bc b7 fa 0c 3e 60 07 15 3e 47 9b e8 bd
       -0.016973212 0.13767515 0.14553595 -0.11357742
000130 9f 55 07 3e b4 77 2f 3d fc 14 6f 3d 9c e1 04 be
       0.13216256 0.042838767 0.05836962 -0.12976688
000140 fe 3c 6e 3c 47 52 32 be 15 46 c5 bd a9 e9 a8 3c
       0.014540909 -0.17414199 -0.09632508 0.02061923
000150 85 e2 d5 bd cd 6f 14 bd 2f aa 11 be 40 96 8b bc
       -0.10443596 -0.036239434 -0.14225076 -0.017039418
000160 3b 11 20 3e d1 df 7a bd 59 f8 06 be 3a a8 9e 3c
       0.15631573 -0.061248604 -0.13180675 0.019367326
000170 df 19 e7 bd 74 e5 6f 3d ee 9a f0 3a 72 62 36 3d
       -0.112842314 0.058568433 0.001835672 0.04452748
000180 73 3a 11 be a1 9c df bd 88 a8 d0 3c ce 5c e8 bd
       -0.14182453 -0.109185465 0.025470987 -0.11345826
000190 d8 30 c0 3c 61 76 39 be 62 ef 12 3e 2c d5 cb 3d
       0.02346079 -0.18111564 0.1434913 0.09952769
0001a0 c1 a5 f4 3c a3 87 17 bd 24 8e 24 bd 4a 4e 4d 3d
       0.029864194 -0.036994588 -0.04017462 0.05012349
0001b0 e1 6b e5 ba ee 28 e6 bd ab 8d c3 bd f4 ae f2 3d
       -0.0017503464 -0.112382755 -0.095485054 0.11849776
0001c0 26 5e 1e 3d 5e 53 71 3c 15 3c f4 bd 91 b8 13 3c
       0.038664006 0.014729349 -0.11925522 0.009016172
0001d0 34 73 8c bb 98 e1 17 be 95 c6 f4 3d 57 ba aa bd
       -0.004286194 -0.14832151 0.11951939 -0.08336323
0001e0 4a 84 c6 3c fe ae d4 3d 93 9f 49 3d 6c da 08 bd
       0.024233002 0.103849396 0.049224447 -0.03341143
0001f0 98 bd 02 3d 0f 17 26 3d 32 d2 24 be f8 a5 f0 3c
       0.031919092 0.040549334 -0.16095808 0.029376015
000200 b1 10 f0 bc d3 01 fb bd 46 a6 ef bc b4 90 18 3c
       -0.029304834 -0.12256207 -0.02925409 0.009311844
000210 5e 8c 6f 3c 9d 08 1e 3d 22 cb b1 bd 67 f4 18 be
       0.0146208685 0.038582433 -0.08681323 -0.14936982
000220 db 7c f3 bd 5e 30 77 3d 57 c6 92 3b 22 0a d5 bd
       -0.11889049 0.06034886 0.0044792104 -0.10402323
000230 f7 05 ee 3d 77 6f 11 be be 57 00 be 44 d6 05 be
       0.116222315 -0.14202677 -0.12533471 -0.13070017
000240 43 47 e4 bd 65 34 9b 3c f5 31 17 3d ac c6 c5 bd
       -0.111464046 0.018945882 0.036912877 -0.09657034
000250 1d 92 1e 3d 92 a4 ff bd 59 45 b4 bd e6 79 dd 3d
       0.038713563 -0.12482561 -0.088022895 0.10814266
000260 3b e8 c1 bc 35 5f df bd c9 fb 3e 3d fd 9a 6f 3d
       -0.023670306 -0.10906831 0.04662684 0.058497418
000270 57 3a 1b 3e fe 4d 0e 3e 86 61 69 3d fd 7c 4a 3d
       0.15158974 0.13896939 0.05697777 0.049435604
000280 4b ed b3 bb 73 e5 f9 3c 7b ce e4 bd 04 35 12 3e
       -0.005490934 0.030504918 -0.111721955 0.14278036
000290 e8 d1 a2 bd 1d 8c f0 3d 01 80 e5 3d ec 8b f4 bd
       -0.07950193 0.117454745 0.112060554 -0.119407505
0002a0 f1 7e 7c 3d 92 d5 f1 3d ab 93 e6 bd 4a 54 27 3e
       0.0616445 0.118083134 -0.11258634 0.16340747
0002b0 2b c6 32 be 15 cf 05 3e 7b 2f f3 bd b5 67 fb bd
       -0.17458408 0.13067277 -0.118742906 -0.1227564
0002c0 79 da f0 bd f9 d5 fc bd 45 f7 91 3c 5b 1c 1d 3e
       -0.1176042 -0.123454995 0.017818103 0.15342848
0002d0 08 9e 09 be cb 4c 0f be 5c 54 00 be 2c 99 fa bd
       -0.1343919 -0.13994138 -0.1253218 -0.122362465
0002e0 3c d2 dd bd e8 b8 c3 bd 61 39 40 3d 9e ac 06 bd
       -0.10831115 -0.095567524 0.04692972 -0.032879464
0002f0 3e e9 25 3e 15 aa 07 be ec ca b0 bd d4 0d b9 bd
       0.16202256 -0.13248475 -0.08632454 -0.09035841
000300 5a 69 f6 3d 85 7e fa bd 2f 85 e6 bd 43 96 c5 bd
       0.12031813 -0.12231163 -0.112558715 -0.09647801
000310 0e 99 fb 3c 4d 89 e6 bd 11 5d 92 ba fc ff 56 3d
       0.03071263 -0.11256657 -0.0011166652 0.05249022
000320 22 7a 0e 3e 61 8e c7 bd 5f a7 16 be 9a ab 53 3d
       0.13913777 -0.097439535 -0.14712285 0.051677324
000330 35 08 1d be 28 f2 64 3d 3a d9 c7 bd 1d c5 10 be
       -0.15335162 0.055895 -0.097582296 -0.14137693
000340 d2 0f 75 3d 93 81 e9 bd 1e e3 e6 bd 7e 0b e7 3d
       0.05982954 -0.114016674 -0.11273788 0.11281489
000350 57 e9 d7 bd 58 8d 25 be 3b 99 0f be 24 2a d4 bd
       -0.10542553 -0.161672 -0.14023297 -0.103596
000360 3a 24 67 3a 47 05 d1 bd 80 cc f5 bd 81 76 b9 bd
       0.0008817349 -0.10206085 -0.12001896 -0.09055806
000370 37 e3 fa 3c da db 61 bc 3f 4f fd bd e2 58 f0 3d
       0.030625923 -0.013785327 -0.123686306 0.11735703
000380 a1 27 64 bb 2f f7 bf bd 36 6f b8 bd 6b ee a9 bd
       -0.003481366 -0.093733184 -0.09005587 -0.08297428
000390 56 e7 51 3d c7 06 a8 bd 47 98 81 3d 98 59 1a 3e
       0.05124601 -0.08204418 0.06327873 0.1507324
0003a0 31 64 13 3c 50 f8 cc 3c e6 f9 15 3e f7 95 ed 3d
       0.008996055 0.025020748 0.1464611 0.11600869
0003b0 20 d2 d8 bd 93 8f 25 be b1 c4 20 3e 96 d7 24 3d
       -0.10586953 -0.1616805 0.15700032 0.04024466
0003c0 7e 6b 6f 3d 2c 93 02 be a8 16 54 bd 58 3f 07 3d
       0.058452122 -0.12751454 -0.05177942 0.033019394
0003d0 39 0b dc bd dd d4 51 3b 9d bf 18 be 10 6e 1e 3d
       -0.10744328 0.0032017746 -0.14916845 0.038679183
0003e0 e4 e6 01 3e 76 d1 0b 3e d0 dd 0c bd e4 58 51 bc
       0.12685734 0.13654122 -0.034391224 -0.012777541
0003f0 d1 2c d6 bd 7e b5 2a 3d fe c5 b5 bd b1 66 5e 3d
       -0.10457767 0.04167699 -0.08875655 0.054297153
